modrl_checkpoint_ep40.pth (torch, 432199 bytes, 48 tensors)

st_embedder.gat.attention_layers.0.weight f4 [16, 10]
0	0x3e77921e	0.24176833
1	0x3e8662ab	0.26247153
2	0xbd97b912	-0.07408346
3	0x3e94bb29	0.29049042
4	0xbd8de626	-0.06928663
5	0x3d82afc4	0.06381181
6	0xbe1da6ed	-0.15395708
7	0x3e3e2c1a	0.18571511
8	0x3e8ebab9	0.27876833
9	0xbe6d8fba	-0.23199359
10	0x3e8cbaf9	0.274864
11	0x3d726bf0	0.05918497
12	0x3e6f3d32	0.23363188
13	0x3d2f6b48	0.04282692
14	0x3e1c240c	0.15248126
15	0xbd36e160	-0.044648528
16	0x3e79a04a	0.24377552
17	0x3d3f73c8	0.046741277
18	0xbe172bba	-0.14762774
19	0x3da514b8	0.080605924
20	0xbe1531c8	-0.14569771
21	0xbd17e660	-0.037084937
22	0xbe038565	-0.12843855
23	0x3e56cf9a	0.20977631
24	0xbe7f9c96	-0.24962077
25	0xbe154879	-0.14578427
26	0xbdb6e028	-0.08929473
27	0xbe42b3cf	-0.19013904
28	0x3cf480c0	0.029846549
29	0xbe9fe9ec	-0.31233156
30	0x3e92389d	0.28558818
31	0xbe898946	-0.26862544
32	0x3e79feea	0.24413648
33	0x3d578eb8	0.05262634
34	0xbdd24a34	-0.102680594
35	0x3e481a56	0.19541296
36	0x3d49de60	0.04928434
37	0x3e82d0f5	0.25550047
38	0x3d0d9930	0.03456992
39	0xbdcc3f1e	-0.09972976
40	0x3dae0240	0.08496523
41	0xbdafa00a	-0.08575447
42	0x3e0847ea	0.13308683
43	0x3e908e3b	0.28233513
44	0x3e3b2f86	0.18279848
45	0xbe0d9062	-0.13824609
46	0x3e3aeda2	0.18254712
47	0x3d67c1f0	0.056581438
48	0x3e24721c	0.16059154
49	0xbe455e45	-0.19274242
50	0xbea04653	-0.31303653
51	0xbdfa386c	-0.12217793
52	0xbe78600e	-0.24255392
53	0x3e84da31	0.25947717
54	0x3dba89fc	0.0910835
55	0x3e062126	0.13098583
56	0x3dccd258	0.100010574
57	0xbbb44280	-0.0055010915
58	0x3e7d6c0a	0.24748245
59	0xbe661398	-0.22468412
60	0x3ca31c20	0.019910872
61	0xbe5d04ae	-0.21583816
62	0x3dc7b30c	0.09750947
63	0xbddf08aa	-0.108903244
64	0x3dc6721c	0.096897334
65	0xbd86eddc	-0.06588337
66	0x3e864923	0.26227674
67	0xbe3fed56	-0.1874288
68	0xbe411fbb	-0.1885976
69	0xbe4122b7	-0.18860899
70	0x3e91a0a7	0.2844288
71	0x3dd7d32c	0.10538325
72	0x3e9bcbf3	0.30429038
73	0xbe859e8d	-0.26097527
74	0xbea097e2	-0.31365877
75	0xbe7d57c6	-0.24740514
76	0xbe59d40c	-0.21272296
77	0x3e0328b2	0.12808493
78	0x3de7e6fc	0.11323354
79	0x3e8688a9	0.26276138
80	0xbe273a39	-0.16330804
81	0xbe5cc002	-0.2155762
82	0x3e2bcf72	0.16778353
83	0xbe02e36d	-0.12782069
84	0x3e44884a	0.19192615
85	0xbd99af20	-0.075041056
86	0x3e393d02	0.18089679
87	0xbe7b987b	-0.24569885
88	0xbe236a0f	-0.15958427
89	0x3dc572d0	0.09641039
90	0x3d88ea30	0.06685293
91	0xbda51ebe	-0.08062504
92	0x3e41047e	0.1884937
93	0x3e5c224a	0.21497455
94	0xbe6ad2d9	-0.22931994
95	0xbe2ce02f	-0.16882394
96	0x3e9440e9	0.28955773
97	0xbdda886e	-0.10670553
98	0xbde598d6	-0.11210792
99	0xbe9ca973	-0.3059803
100	0xbe3970c4	-0.18109423
101	0x3da1c80c	0.07899484
102	0xbd2af778	-0.04173991
103	0xbe6b0dec	-0.2295453
104	0x3bf30fc0	0.007417649
105	0xbe5d318e	-0.21600935
106	0xbe895cdc	-0.2682866
107	0xbe325066	-0.17413482
108	0xbe8db452	-0.27676636
109	0xbe4e2fcf	-0.20135425
110	0x3ea1d865	0.31610408
111	0x3d74a4d8	0.05972752
112	0x3dc79328	0.09744865
113	0xbe970277	-0.29494068
114	0xbe54acb8	-0.20769012
115	0xbdd791a4	-0.105258256
116	0x3d4a8ae8	0.049448878
117	0xbe8e7783	-0.27825555
118	0xbe0b862c	-0.13625401
119	0xbe41dbf5	-0.18931563
120	0x3a65ba00	0.0008763373
121	0xbdf0fca4	-0.117669374
122	0xbcb38360	-0.02191323
123	0xbe5b6d9d	-0.21428533
124	0xbe5e443e	-0.2170572
125	0xbe3cea62	-0.18448785
126	0xbdddaf02	-0.10824396
127	0xbe7f952f	-0.24959253
128	0x3e87c169	0.26514748
129	0xbd80883c	-0.06275985
130	0x3e8b4e3f	0.27208135
131	0x3dc9ca94	0.09853092
132	0xbe891a8e	-0.26778072
133	0x3e6017ca	0.21884075
134	0xbdb2317a	-0.08700843
135	0xbdf84152	-0.12121834
136	0xbe866544	-0.26249135
137	0xbea0f693	-0.3143812
138	0x3db94b8c	0.090476125
139	0xbd8d78c6	-0.06907801
140	0x3dfc2398	0.123114765
141	0xbe84df5b	-0.25951657
142	0x3e70694e	0.2347767
143	0xbe6db302	-0.23212817
144	0xbd5fa890	-0.054604113
145	0x3d874570	0.06605041
146	0x3e272bd6	0.16325316
147	0x3e82b5e3	0.25529394
148	0x3e937dfd	0.2880706
149	0xbe806184	-0.250744
150	0x3da2fd08	0.07958418
151	0xbe0b483e	-0.13601777
152	0xbd0df118	-0.034653753
153	0xbe725fbe	-0.23669335
154	0x3e9379d1	0.28803876
155	0xbe6daa73	-0.23209552
156	0x3e2d1084	0.16900831
157	0x3de39ab8	0.11113495
158	0x3dd273e0	0.10276008
159	0xbe2f1210	-0.17096734

st_embedder.gat.attention_layers.1.weight f4 [16, 10]
0	0x3e932ac5	0.28743568
1	0x3d8e5164	0.06949118
2	0x3d269f98	0.040679544
3	0xbe8eaec8	-0.27867723
4	0x3e07ef4c	0.13274878
5	0xbd425128	-0.047440678
6	0xbe14593a	-0.14487162
7	0x3e8b1223	0.27162275
8	0x3d9063ac	0.07050261
9	0xbe332912	-0.17496136
10	0xbe23e581	-0.16005518
11	0xbc776d00	-0.015101671
12	0x3e34ce98	0.17656934
13	0xbda57e14	-0.08080688
14	0xbe38c311	-0.18043162
15	0xbdddc71e	-0.10828994
16	0xbe71ea6c	-0.23624581
17	0x3de6f7ac	0.112777084
18	0x3e7aa5c6	0.244773
19	0xbe986d64	-0.29770958
20	0x3d9669e0	0.07344413
21	0x3e274804	0.16336066
22	0x3d6adec8	0.057341367
23	0xbde6a37a	-0.112616494
24	0x3e29038c	0.1650526
25	0x3e2a2b94	0.16618186
26	0x3df22b0c	0.11824617
27	0xbd639b40	-0.05556798
28	0xbdab7e92	-0.08373751
29	0x3d0a91b0	0.033830345
30	0xbd64d088	-0.055862933
31	0xbdc0feea	-0.09423621
32	0x3e4efc76	0.20213494
33	0x3e8b24e9	0.27176598
34	0xbd003a68	-0.0313057
35	0xbd9100da	-0.070802405
36	0x3b973500	0.0046144724
37	0xbc9aad30	-0.01888141
38	0x3d9bb2d8	0.07602471
39	0x3db57d2c	0.08861765
40	0xbe930dfa	-0.287216
41	0xbdef0066	-0.11669998
42	0x3e885917	0.2663047
43	0x3dfc4a0c	0.12318811
44	0xbc80d8e0	-0.015728414
45	0xbe433b35	-0.19065554
46	0xbe461cf0	-0.19346976
47	0xbe91084a	-0.28326637
48	0xbdd31ac0	-0.103078365
49	0x3ddab578	0.10679144
50	0x3e4e790e	0.20163366
51	0x3e15816c	0.14600152
52	0xbe8f1e3f	-0.27952763
53	0xbe42bb45	-0.1901675
54	0xbd4c6a40	-0.049906015
55	0x3e9c9f49	0.30590275
56	0x3d3b5ed0	0.045744717
57	0xbda7b7e8	-0.08189374
58	0x3e05f7d6	0.13082823
59	0xbdf6ac0a	-0.120445326
60	0xbe5197b0	-0.2046802
61	0x3e6c599e	0.23081061
62	0xbe133d82	-0.14378932
63	0xbd81d444	-0.063393146
64	0xbea11140	-0.31458473
65	0x3e58b8aa	0.21164194
66	0x3e7555ce	0.23958513
67	0x3dec077c	0.11524865
68	0xbe61ca16	-0.22049746
69	0xbe9fcb48	-0.3120978
70	0xbe837fb0	-0.25683355
71	0x3e71787a	0.23581114
72	0x3e1b776e	0.15182278
73	0x3e883f2f	0.26610705
74	0x3e29a35a	0.1656622
75	0x3da3e944	0.08003476
76	0xbb4af280	-0.0030967295
77	0xbe7643d4	-0.24049312
78	0xbe8ab803	-0.27093515
79	0xbe9770e5	-0.2957832
80	0x3e048ef6	0.1294516
81	0xbe1efbe0	-0.1552577
82	0xbd825690	-0.06364167
83	0xbe3a5bc8	-0.18199074
84	0xbd6c0750	-0.05762416
85	0xbe63e9f3	-0.22257213
86	0xbe539656	-0.20662817
87	0x3dd6d3cc	0.10489616
88	0xbdc07980	-0.09398174
89	0x3e47e806	0.19522104
90	0xbdcfc44e	-0.10144864
91	0xbe6d8aae	-0.23197433
92	0xbd648930	-0.055794895
93	0xbe1cf835	-0.15329058
94	0xbdc62368	-0.09674722
95	0xbe9a22e4	-0.30104744
96	0x3e352c3c	0.17692655
97	0xbe61716a	-0.2201592
98	0x3e22c19c	0.15894169
99	0x3e12f172	0.14349917
100	0x3e67587a	0.22592345
101	0xbe78627a	-0.24256316
102	0x3e68e36a	0.22743002
103	0xbe1915ca	-0.14949718
104	0x3df05134	0.11734238
105	0x3e980cff	0.29697415
106	0xbd36ac98	-0.044598192
107	0xbb204580	-0.0024455488
108	0xbd951af2	-0.0728053
109	0xbe8730f2	-0.2640453
110	0x3e1b669c	0.15175861
111	0xbea0bac5	-0.31392494
112	0x3e490696	0.19631419
113	0x3e7249c6	0.23660955
114	0x3e991e35	0.2990586
115	0xbd98c384	-0.07459167
116	0xbe8507e9	-0.25982597
117	0x3d919b9c	0.07109758
118	0x3e32e2ae	0.17469284
119	0xbea12629	-0.31474426
120	0xbd9300a0	-0.071778536
121	0xbe421d30	-0.18956447
122	0xbce29400	-0.027658463
123	0xbe1f6320	-0.15565157
124	0xbe045db1	-0.12926365
125	0xbdcd98e8	-0.1003893
126	0xbe99dcc7	-0.30051252
127	0x3e84d8e5	0.25946727
128	0x3e87bba9	0.2651036
129	0xbd4b3008	-0.049606353
130	0xbd138208	-0.03601268
131	0xbe042801	-0.12905885
132	0xbe9236b2	-0.28557354
133	0xbe9d8f7b	-0.3077353
134	0x3df0b2e4	0.11752871
135	0xbe31ca65	-0.17362364
136	0xbe502cb6	-0.20329556
137	0xbcca1f40	-0.024673104
138	0xbdd7ab64	-0.10530737
139	0xbdd185f0	-0.10230625
140	0x3c267960	0.010160774
141	0xbd895f0e	-0.06707583
142	0xbddefd14	-0.108881146
143	0xbe1b0bac	-0.15141171
144	0xbe83c403	-0.25735483
145	0x3e87c2f3	0.26515922
146	0xbe019666	-0.12655029
147	0x3dab9c20	0.08379388
148	0xbde0b504	-0.10972026
149	0x3cd282b0	0.025697082
150	0x3e96f28d	0.29481927
151	0x3e1530a0	0.1456933
152	0xbe8c4f59	-0.27404287
153	0x3e008622	0.12551168
154	0x3e99b0cb	0.30017695
155	0x3daa61c0	0.083194256
156	0x3e591856	0.2120069
157	0x3e9f9fa9	0.311765
158	0xbd467908	-0.04845527
159	0x3d866b60	0.06563449

st_embedder.gat.attention_layers.2.weight f4 [16, 10]
0	0xbe611078	-0.21978939
1	0xbd857670	-0.06516731
2	0x3e6fd056	0.23419318
3	0x3e2600ea	0.16211286
4	0xbe4ce872	-0.20010546
5	0xbe81d504	-0.2535783
6	0xbe5d48f2	-0.21609858
7	0xbe9fc8b4	-0.31207812
8	0xbe79deb8	-0.24401367
9	0xbda02888	-0.07820231
10	0x3e5a896e	0.21341488
11	0x3d58ce18	0.05293092
12	0xbe764c12	-0.24052456
13	0xbe81e310	-0.25368547
14	0x3e211750	0.1573155
15	0xbe70de5e	-0.23522326
16	0xbd1f7bb0	-0.038936317
17	0x3e1b564c	0.15169638
18	0xbe15ddd4	-0.14635402
19	0xbd0d3c68	-0.034481436
20	0xbce17df0	-0.027525872
21	0xbd993834	-0.07481423
22	0xbe242f8d	-0.16033764
23	0xbe9054e0	-0.28189754
24	0xbe82e145	-0.25562492
25	0xbe2d6447	-0.16932784
26	0x3e9c60a1	0.30542472
27	0xbe1c6892	-0.15274265
28	0xbe5973cc	-0.21235579
29	0x3d9cfb9c	0.07665178
30	0x3db27ea8	0.08715564
31	0x3e316c30	0.17326427
32	0x3e7623de	0.2403712
33	0x3e345350	0.17609906
34	0xbea08855	-0.31354013
35	0x3ce5c050	0.028045803
36	0x3e44273e	0.19155595
37	0xbcef6e80	-0.029227495
38	0xbe3ed19a	-0.18634644
39	0x3e9a5a9b	0.3014725
40	0xbdf23bbc	-0.118278
41	0xbe385d13	-0.18004255
42	0xbe91f833	-0.28509673
43	0x3c676e00	0.014125347
44	0x3e0f7e80	0.140131
45	0x3d8f5cb8	0.070001066
46	0x3d8011cc	0.062533945
47	0xbe759434	-0.23982316
48	0xbe973453	-0.29532108
49	0x3bb67880	0.005568564
50	0x3e93a241	0.28834727
51	0x3e3ad12c	0.18243855
52	0xbe3c8999	-0.18411864
53	0xbd282310	-0.041049063
54	0xbe6eb676	-0.23311791
55	0xbe1c378e	-0.15255567
56	0x3d6a9230	0.05726832
57	0x3e3054ba	0.1721982
58	0x3e861ec1	0.26195338
59	0xbe94a637	-0.29033062
60	0x3e588256	0.21143469
61	0xbe6462c0	-0.22303295
62	0x3df28494	0.118416935
63	0x3e8903af	0.26760623
64	0x3b918240	0.004440576
65	0x3e934e51	0.28770688
66	0xbe89f459	-0.26944235
67	0xbdf75eb4	-0.1207861
68	0x3e3cde0a	0.18444076
69	0xbd8d1946	-0.06889586
70	0xbd849228	-0.064731896
71	0xbe06f6de	-0.1318011
72	0x3e5f358e	0.21797773
73	0x3e1ed558	0.15511072
74	0x3dcf88d4	0.1013352
75	0xbe35f939	-0.17770852
76	0xbe836de3	-0.25669774
77	0x3d0c18d8	0.03420338
78	0x3dbfe160	0.09369159
79	0xbe1582a1	-0.14600612
80	0xbdb534e4	-0.08847979
81	0x3e5ab21a	0.21357003
82	0x3cce5c90	0.025190622
83	0x3c69c300	0.014267683
84	0xbd9f6218	-0.07782382
85	0xbe929f6e	-0.2863726
86	0xbe983c5c	-0.2973355
87	0xbe1aca1e	-0.15116164
88	0xbe249a6d	-0.16074534
89	0x3dc9c5d8	0.09852189
90	0xbdbc888a	-0.0920573
91	0xbdfd5e72	-0.1237153
92	0x3e9a5e57	0.301501
93	0x3de195fc	0.110149354
94	0x3e66d99e	0.22543952
95	0xbe1cc399	-0.1530899
96	0xbe0444c3	-0.12916856
97	0x3dee0828	0.116226494
98	0xbe57c05a	-0.2106947
99	0xbe53ae3e	-0.20671937
100	0xbc7a3e80	-0.01527369
101	0xbdece114	-0.11566368
102	0xbe72c08e	-0.23706266
103	0x3e40133a	0.18757334
104	0x3e82336d	0.2542986
105	0x3d521f70	0.051299512
106	0xbd618608	-0.055059463
107	0xbe95f8b9	-0.29291323
108	0xbdebe4c0	-0.1151824
109	0x3da4e0e0	0.08050704
110	0x3e18b09a	0.14911118
111	0xbd23bea0	-0.039976716
112	0xbe0005a6	-0.12502155
113	0x3e34707c	0.17621034
114	0xbe80f1a8	-0.2518437
115	0x3e4ca886	0.19986162
116	0xbdfb40c0	-0.122682095
117	0x3b9e98c0	0.0048399866
118	0xbd7ff738	-0.062491626
119	0x3d1d0978	0.03833911
120	0xbdc3b6d0	-0.09556353
121	0x3e6b74ca	0.2299377
122	0xbc06b180	-0.00822103
123	0x3e7cc586	0.24684724
124	0x3e9bac07	0.30404684
125	0xbe1dc2c6	-0.15406331
126	0xbe6c3a46	-0.23069105
127	0x3e81e64d	0.25371018
128	0x3e7dbf6a	0.2478005
129	0xbe773ff1	-0.24145485
130	0xbcc841d0	-0.024445444
131	0xbe9fa98f	-0.3118405
132	0xbe8489cb	-0.25886378
133	0x3d7a2be8	0.06107703
134	0x3dac4b0c	0.084127516
135	0x3d894948	0.067034304
136	0xbdb04364	-0.08606604
137	0x3e955f8f	0.29174468
138	0x3d3931e8	0.04521361
139	0xbe3f1462	-0.18660119
140	0xbc92a900	-0.017902851
141	0x3d9b86bc	0.07594058
142	0x3de2cbfc	0.11074063
143	0xbe64f708	-0.2235986
144	0x3df2ba08	0.11851889
145	0xbe256eaa	-0.16155496
146	0xbe868952	-0.26276642
147	0xbe30df13	-0.17272596
148	0x3e9c256d	0.30497304
149	0x3e8a68a9	0.27032974
150	0x3e90fc95	0.28317705
151	0x3e3e1596	0.18562922
152	0x3e74a0aa	0.23889413
153	0xbd2d5f18	-0.042327017
154	0xbe322c5b	-0.17399733
155	0x3e21cc22	0.15800527
156	0xbe27cbe8	-0.16386378
157	0xbe5a887f	-0.21341132
158	0xbdcecfce	-0.10098229
159	0x3d87e980	0.066363335

st_embedder.gat.attention_layers.3.weight f4 [16, 10]
0	0x3e26b334	0.16279298
1	0xbdfb8c0c	-0.12282571
2	0xbe3e9681	-0.186121
3	0x3d2eb908	0.04265693
4	0xbe3ede5e	-0.18639514
5	0xbe52d32d	-0.2058837
6	0x3e28ca54	0.16483432
7	0xbd5995d0	-0.053121388
8	0x3e93f31d	0.28896418
9	0x3e9d807b	0.30762085
10	0x3dc1b608	0.09458548
11	0x3ddee36c	0.10883221
12	0x3d9523c4	0.072822124
13	0x3ba247c0	0.004952401
14	0xbcbc6a90	-0.023000032
15	0x3b8e6b40	0.0043462813
16	0x3df1d7c0	0.11808729
17	0x3e9689b5	0.29401937
18	0xbda7d722	-0.0819533
19	0xbe08e1f6	-0.13367447
20	0xbd9cd594	-0.07657924
21	0xbe1c71a7	-0.1527773
22	0x3d5c3ef0	0.05377096
23	0x3e71b67e	0.23604771
24	0x3e7d37be	0.24728295
25	0x3e14ac3a	0.14518824
26	0xbe6e4eac	-0.23272198
27	0xbe2dcb54	-0.16972095
28	0xbd8e4aee	-0.069478855
29	0xbd6ebfd8	-0.058288425
30	0x3cd510e0	0.026009023
31	0xbe94a0a3	-0.29028806
32	0x3dc992a4	0.098424226
33	0xbe7707f8	-0.24124134
34	0xbe4ce4c4	-0.20009142
35	0xbe869ba5	-0.26290622
36	0x3e8d12fd	0.2755355
37	0xbe995156	-0.29944867
38	0x3e7446e6	0.2385517
39	0xbc2e2c00	-0.010630608
40	0xbd16a360	-0.0367769
41	0x3e4a8a6e	0.19779369
42	0xbcef6ff0	-0.02922818
43	0x3e4b1552	0.19832352
44	0x3e6a1fee	0.22863743
45	0xbe8c9219	-0.27455214
46	0x3df93308	0.121679366
47	0x3d748500	0.05969715
48	0x3d8b3fc0	0.06799269
49	0x3d3d1920	0.04616654
50	0x3db125e8	0.08649808
51	0xbe1bc719	-0.15212668
52	0xbd25b7d8	-0.04045853
53	0x3e99d525	0.3004543
54	0x3e598e72	0.21245745
55	0xbc42a520	-0.011880189
56	0xbe9847b2	-0.297422
57	0x3c631340	0.01385957
58	0xbe5c82ce	-0.21534273
59	0x3e83a9a7	0.25715372
60	0xbe4495da	-0.19197789
61	0xbcbb0a80	-0.022832155
62	0xbd8fbcdc	-0.07018444
63	0x3d667f80	0.056273937
64	0x3e985c49	0.29757908
65	0x3cf626a0	0.030047715
66	0x3e3b8b16	0.18314776
67	0x3e7b5a9a	0.2454628
68	0x3e82b5ed	0.25529423
69	0xbddfa958	-0.10920972
70	0xbd90d906	-0.07072644
71	0x3e1c0f4c	0.1524021
72	0xbdb0b7f0	-0.08628833
73	0x3e17a1c8	0.14807808
74	0xbd8d7cba	-0.06908555
75	0xbe5ba13a	-0.21448222
76	0x3e03cec2	0.1287184
77	0x3d469690	0.04848343
78	0x3e105f96	0.14098963
79	0x3ea0da9d	0.3141679
80	0x3e5d14aa	0.21589914
81	0x3e997c7f	0.29977795
82	0x3c8aa720	0.016925395
83	0xbe8b469c	-0.27202308
84	0xbe632aa7	-0.2218424
85	0xbe492592	-0.19643238
86	0xbe8eae84	-0.2786752
87	0xbe225006	-0.15850839
88	0xbe950c40	-0.29110909
89	0xbe95611e	-0.29175657
90	0xbe417f9b	-0.18896334
91	0xbe9f9d71	-0.31174806
92	0xbe46c357	-0.19410454
93	0x3df6f2d8	0.120580375
94	0x3e870a53	0.26375064
95	0xbdc0a5ae	-0.09406601
96	0xbdbc6214	-0.091983944
97	0x3e2ce73e	0.16885087
98	0xbe1fc312	-0.15601757
99	0xbe191c80	-0.14952278
100	0x3e47836a	0.19483724
101	0xbe8d123d	-0.27552977
102	0x3d1e60f0	0.038666666
103	0x3e8f06f3	0.2793499
104	0x3d5e1f00	0.054228783
105	0x3db01ec4	0.08599618
106	0xbe3c969a	-0.18416825
107	0xbb8ef640	-0.0043628514
108	0x3c8e7070	0.017387599
109	0x3d9ef3a4	0.077613145
110	0x3dfba2c0	0.122869015
111	0x3e8cafd9	0.2747791
112	0xbe772b66	-0.24137649
113	0x3c1b4de0	0.009479016
114	0xbe21ca75	-0.15799887
115	0xbe80147f	-0.25015637
116	0xbccf71b0	-0.025322765
117	0xbe8e8497	-0.27835533
118	0x3e61fde6	0.22069511
119	0x3d1602e8	0.036623865
120	0xbe2e861f	-0.1704335
121	0x3e29385a	0.16525403
122	0xbe993c1e	-0.29928678
123	0xbdfa8128	-0.12231666
124	0xbd7c57b8	-0.061607093
125	0xbe8994f7	-0.26871464
126	0xbe4de95e	-0.20108554
127	0xbd536978	-0.051614255
128	0x3e75b37a	0.23994246
129	0x3e9c5905	0.30536667
130	0x3e4e0862	0.20120385
131	0xbe415bea	-0.18882719
132	0xbe53d91c	-0.2068829
133	0x3e8d4beb	0.27596983
134	0x3de51460	0.11185527
135	0x3c09a640	0.0084014535
136	0x3d2f4aa0	0.042795777
137	0xbe82201c	-0.25415123
138	0xbdd83c58	-0.10558385
139	0x3e9bdb2d	0.30440655
140	0xbd9fba3e	-0.07799195
141	0xbc81f3b0	-0.01586327
142	0xbe867011	-0.26257375
143	0xbe35254a	-0.17690006
144	0xbbd39740	-0.0064572394
145	0xbe492462	-0.19642785
146	0xbd20a030	-0.039215267
147	0x3e03c7c8	0.12869179
148	0xbe9e6016	-0.30932683
149	0x3dc05af4	0.09392348
150	0xbe561c50	-0.20909238
151	0xbe1e0a12	-0.15433529
152	0x3df8a218	0.12140292
153	0x3e80bca1	0.25143912
154	0xbdb1010c	-0.08642778
155	0xbe04f308	-0.12983334
156	0xbe926751	-0.2859445
157	0xbe26fa95	-0.16306527
158	0xbe8dc5ee	-0.2769007
159	0xbd943974	-0.07237521

st_embedder.gat.attention_coeff.0.weight f4 [1, 32]
0	0x3d13c07c	0.03607224
1	0xbe2997b6	-0.1656178
2	0x3e1e0ce9	0.15434612
3	0x3de323c6	0.110908076
4	0xbe313548	-0.17305481
5	0xbdacebef	-0.08443438
6	0x3d6c295c	0.05765663
7	0xbd14c4c4	-0.036320463
8	0xbc9dd098	-0.019264504
9	0xbda37754	-0.079817444
10	0x3e1165f5	0.1419905
11	0xbdca6104	-0.098817855
12	0x3e161d79	0.1465968
13	0x3c3ae060	0.011406034
14	0x3d118e28	0.03553596
15	0x3e0d380d	0.13790913
16	0xbcee9b28	-0.029126719
17	0xbdce1fd2	-0.10064663
18	0xbcea3758	-0.028590843
19	0x3e12d0fb	0.14337532
20	0xbe065066	-0.13116607
21	0x3d2459f4	0.04012485
22	0xbe31e77d	-0.17373462
23	0x3dbdd152	0.0926844
24	0x3d85c2f8	0.06531328
25	0x3bf58fe0	0.007493958
26	0x3d9b626e	0.07587133
27	0x39507c00	0.0001988262
28	0x3dc855ca	0.09781988
29	0xbe0f4c72	-0.13994005
30	0xbcd4aa48	-0.025960103
31	0x3da09b0a	0.07842071

st_embedder.gat.attention_coeff.1.weight f4 [1, 32]
0	0x3e344319	0.1760372
1	0x3db86b5e	0.09004854
2	0xbe03a1f4	-0.12854749
3	0x3e0b38ad	0.13595839
4	0xbd2177cc	-0.039420888
5	0xbd1a99d8	-0.037744373
6	0xbe2487bd	-0.16067405
7	0xbce3f5d8	-0.027827188
8	0x3e000a31	0.12503888
9	0x3cc9f008	0.024650589
10	0xbdd2def0	-0.10296428
11	0x3d5ee138	0.054414004
12	0xbd682bdc	-0.056682453
13	0x3e254503	0.16139607
14	0xbe1d1dd7	-0.15343414
15	0xbd64b7e4	-0.055839434
16	0xbe2ec998	-0.1706909
17	0xbd8e94ee	-0.06962
18	0x3d644380	0.055728436
19	0x3e2e407b	0.17016785
20	0x3cf33658	0.029688999
21	0x3e3176bf	0.17330454
22	0x3d0daad4	0.034586743
23	0x3dd11722	0.1020949
24	0x3e111dc9	0.14171518
25	0x3e17517b	0.14777176
26	0xbdcaa442	-0.09894611
27	0x3e266d67	0.16252671
28	0x3ddb4f7e	0.10708521
29	0xbda9481c	-0.08265707
30	0xbdacc41d	-0.08435843
31	0xbe17d44b	-0.14827077

st_embedder.gat.attention_coeff.2.weight f4 [1, 32]
0	0x3d35d7c0	0.04439521
1	0xbe12b99f	-0.14328621
2	0x3d98ef1e	0.07467483
3	0x3d64a974	0.055825666
4	0xbe1d451e	-0.15358397
5	0x3d454fcc	0.048171803
6	0xbc6b8ef0	-0.014377341
7	0x3da562be	0.08075474
8	0x3dcfbbea	0.10143264
9	0xbe33f5a0	-0.17574167
10	0x3e26033b	0.1621217
11	0x3e17cf77	0.14825235
12	0x3d900c9c	0.07033655
13	0xbe2571d3	-0.16156702
14	0xbd8153e6	-0.063148305
15	0xbd51d814	-0.05123146
16	0xbd3a161c	-0.04543124
17	0x3dcc2976	0.099688455
18	0x3d83a06a	0.06427081
19	0x3e0f6655	0.1400388
20	0xbd879785	-0.06620697
21	0x3d73ae48	0.05949238
22	0x3d80cfc4	0.06289628
23	0xbe16b70c	-0.14718264
24	0xbe2f97a4	-0.1714769
25	0xbdbbdba0	-0.091727495
26	0x3df7d52e	0.12101208
27	0xbe2a6c22	-0.16642812
28	0xbe1d90bb	-0.15387242
29	0x3dcad072	0.09903039
30	0x3dc35492	0.09537615
31	0x3e14de75	0.14537986

st_embedder.gat.attention_coeff.3.weight f4 [1, 32]
0	0xbe08a894	-0.13345557
1	0xbe047cee	-0.12938282
2	0x3db9b892	0.09068407
3	0x3e1d6b7d	0.15373035
4	0x3dd89f2e	0.10577236
5	0x3ce2db40	0.027692437
6	0x3d6ea338	0.058261126
7	0x3e2bcf6f	0.16778348
8	0xbde996c3	-0.11405709
9	0xbda45ead	-0.080258705
10	0x3dfd3bee	0.12364946
11	0xbdf7b8a0	-0.12095761
12	0xbdc7a1f7	-0.09747689
13	0x3e04247b	0.12904541
14	0x3d647660	0.055776954
15	0x3d69ed7c	0.05711125
16	0xbd997255	-0.0749251
17	0xbb1fe1c0	-0.0024396032
18	0x3e25acc1	0.16179182
19	0xbdd94d89	-0.10610492
20	0x3ab62c00	0.0013898611
21	0x3dac2f76	0.0840749
22	0xbdf9ef87	-0.12203889
23	0x3e2fcd41	0.17168142
24	0xbdb4e0db	-0.0883195
25	0xbd2de088	-0.042450458
26	0xbd43e9f0	-0.047830522
27	0xbdebecfc	-0.115198106
28	0xbe31a0bc	-0.17346472
29	0x3dcc22d6	0.09967582
30	0x3d405e5c	0.046964988
31	0xbe298af8	-0.16556919

st_embedder.gat.output_layer.weight f4 [64, 64]
0	0xbda4c4ba	-0.08045335
1	0x3dfd05b0	0.123546004
2	0x3d43b450	0.04777938
3	0x3d4d6ff0	0.05015558
4	0xbd992a10	-0.07478726
5	0xbd607574	-0.054799512
6	0xbc9a93b8	-0.018869266
7	0xbcbb44e0	-0.02285999
8	0xbdaf6c70	-0.08565605
9	0x3c28b970	0.010298118
10	0x3c4b8bf0	0.0124235
11	0xbc81a8f0	-0.015827626
12	0x3c8df580	0.017328978
13	0xbd4aee78	-0.049543828
14	0x3d053fbc	0.032531485
15	0x3d41188c	0.04714255
16	0xbd86d85e	-0.065842375
17	0xbdfdd820	-0.12394738
18	0x3d85ffcc	0.0654293
19	0x3cf442f8	0.02981709
20	0xbd8232d2	-0.063573495
21	0x3df6b52c	0.120462745
22	0xbd678d0c	-0.056530997
23	0x3dacfdbe	0.08446835
24	0x3d81e048	0.063416064
25	0xbdd6a1ea	-0.104801014
26	0x3da51ae0	0.080617666
27	0xbdeb6294	-0.11493412
28	0xbd8dd3e8	-0.069251835
29	0xbcaab750	-0.020839363
30	0xbdac8e50	-0.084255815
31	0x3dfa16c4	0.122113734
32	0xbccd64c0	-0.025072455
33	0x3d4b5c74	0.049648717
34	0xbde495e0	-0.11161399
35	0x3d935ee0	0.0719583
36	0xbd1f1f0c	-0.038847968
37	0xbdc2bb5a	-0.09508391
38	0x3c95bb78	0.018277869
39	0x3d780b60	0.060557723
40	0x3ddd8aaa	0.10817464
41	0xbd9c5ce8	-0.07634908
42	0xbd7bf518	-0.061513036
43	0x3cc4e090	0.024032861
44	0x3d0ae2c0	0.033907652
45	0x3d44d98c	0.04805903
46	0x3d8c8316	0.0686094
47	0xbce83220	-0.028344214
48	0x3d8e39d0	0.069446206
49	0x3dbcbf24	0.09216145
50	0xbd05bed4	-0.03265269
51	0x3db62210	0.08893216
52	0x3d7a2718	0.06107244
53	0x3de1ce36	0.1102566
54	0xbd917a66	-0.07103424
55	0xbd7cd488	-0.061726123
56	0xbd140a04	-0.036142364
57	0x3bcfc660	0.006340787
58	0x3d99a6a4	0.07502487
59	0xbd92240e	-0.07135783
60	0x3d802adc	0.06258175
61	0xbd377dc4	-0.044797674
62	0x3d9aa6e8	0.07551366
63	0xbbc27780	-0.0059346557
64	0xbde0473c	-0.10951087
65	0xbd8cdcea	-0.068780735
66	0xbdb947d0	-0.090469
67	0x3d7deecc	0.061995313
68	0xbdaba90c	-0.083818525
69	0xbc2aa2c0	-0.010414779
70	0x3cdcef18	0.026969478
71	0xbd8c6398	-0.068549335
72	0x3d13b258	0.036058754
73	0xbdf9f6e2	-0.12205292
74	0xbdb72b90	-0.08943856
75	0xbde7f7b4	-0.113265425
76	0xbd1ade50	-0.03780967
77	0xbd3a8530	-0.045537174
78	0x3c92a148	0.01789917
79	0xbcbd5a38	-0.023114309
80	0x3d70ae98	0.058760256
81	0x3deab31a	0.11459942
82	0x3d37b378	0.04484889
83	0xbd49b61c	-0.04924594
84	0xbdefb6f8	-0.117048204
85	0x3d397288	0.04527524
86	0xbd7daca8	-0.061932236
87	0x3d8245b8	0.06360954
88	0x3dab21d4	0.083560616
89	0x3d457d28	0.04821506
90	0x3df03522	0.11728884
91	0x3df325dc	0.118724555
92	0x3cd8d258	0.026467487
93	0xbdba87f0	-0.09107959
94	0x3de4b892	0.111680165
95	0xbd72f11c	-0.05931197
96	0xbd71d854	-0.059044197
97	0x3dd63720	0.10459733
98	0x3dc659f8	0.09685129
99	0x3d1ab394	0.037768915
100	0x3c006060	0.007835478
101	0xbdd756a6	-0.10514574
102	0xbc549740	-0.012975514
103	0x3df5894e	0.119890794
104	0x3d0262a4	0.031832352
105	0x3c2f5880	0.010702252
106	0xbcd4a278	-0.025956377
107	0xbd329398	-0.043597788
108	0x3d9894f2	0.07450284
109	0x3bfc9820	0.0077085644
110	0x3da68c08	0.081321776
111	0xbcb53f20	-0.022124827
112	0x3d5fb290	0.05461365
113	0x3d535694	0.05159624
114	0x3ca34a90	0.019933015
115	0x3da0dd0e	0.07854663
116	0x3da06bde	0.07833074
117	0x3ded4ad8	0.11586541
118	0x3dc4ce80	0.09609699
119	0xbd02eaac	-0.03196208
120	0xbdd8bc1a	-0.105827525
121	0x3cbb3480	0.022852182
122	0xba8f0100	-0.0010910332
123	0xbd058ae8	-0.032603174
124	0xbcab7940	-0.02093184
125	0x3bc0a580	0.005879104
126	0x3dbac906	0.091203734
127	0x3d1f9c8c	0.038967654
128	0xbd35ceec	-0.04438679
129	0xbd528c14	-0.05140312
130	0xbcfd9310	-0.030953914
131	0xbd45e3b8	-0.048312873
132	0x3de63378	0.11240286
133	0x3d8796d6	0.066205665
134	0x3de7296a	0.11287196
135	0x39d14c00	0.0003992021
136	0x3cce82d0	0.02520886
137	0x3d318b24	0.043345585
138	0xbdf2514e	-0.11831914
139	0x3c36e120	0.011162072
140	0xbc08fda0	-0.00836125
141	0xbd8f8706	-0.070081756
142	0xbdc6a47c	-0.09699342
143	0x3de2a158	0.1106593
144	0x3dd02518	0.10163325
145	0x3d6d4bc4	0.057933584
146	0x3df449b6	0.11928122
147	0xbd4fc60c	-0.05072598
148	0xbcb0de38	-0.021590337
149	0x3d41da4c	0.047327325
150	0xbca93128	-0.020653322
151	0xbcc8f1c8	-0.024529353
152	0xbdd39988	-0.10332018
153	0x3d098df8	0.033582658
154	0xbd9ab530	-0.0755409
155	0x3b94f4c0	0.004545778
156	0x3df99800	0.12187195
157	0xbd1d99f8	-0.038476914
158	0xbd2160d0	-0.03939897
159	0x3d9a72b6	0.075414106
160	0xbd3c3d0c	-0.045956656
161	0xbc2fe080	-0.010734677
162	0x3def097c	0.11671731
163	0xbd51e814	-0.051246718
164	0xbdb72520	-0.08942628
165	0xbd8f44d0	-0.06995547
166	0xbd0df324	-0.034655705
167	0xbd72f180	-0.059312344
168	0xbd84d8b6	-0.06486647
169	0x3d4ed1d0	0.05049306
170	0x3cae0428	0.021242216
171	0xbd23df1c	-0.040007696
172	0xbdc6e3aa	-0.09711392
173	0xbd213550	-0.039357483
174	0xbd581584	-0.052754894
175	0xbd269d50	-0.04067737
176	0xbde6f188	-0.11276537
177	0x3cdc9970	0.026928633
178	0xbdbc16d8	-0.091840446
179	0xbdc75f62	-0.0973499
180	0xbdd12916	-0.10212915
181	0x3d55b350	0.05217296
182	0xbd9a1e6c	-0.07525334
183	0xbd535414	-0.051593855
184	0x3dc8a9c8	0.09798008
185	0x3d87ed46	0.06637053
186	0x3d92c9c4	0.0716739
187	0xbdf312dc	-0.118688315
188	0xbdb793da	-0.08963747
189	0xbd414920	-0.047188878
190	0x3dd37b22	0.1032622
191	0x3c5182e0	0.012787551
192	0xbdbf7630	-0.09348714
193	0x3a4d3000	0.0007827282
194	0xbdc6d3e6	-0.09708385
195	0xbce05b90	-0.02738741
196	0xbd0cc988	-0.034371883
197	0x3ddd9c00	0.1082077
198	0x3d1e95d0	0.03871709
199	0xbcb28e58	-0.02179639
200	0x3cacfba8	0.021116093
201	0xbd13cbf8	-0.03608319
202	0x3d492a3c	0.049112543
203	0x3d4a8758	0.04944548
204	0x3d097ee0	0.033568263
205	0xbd4790d8	-0.04872212
206	0x3dda6816	0.10664384
207	0xbc93d5b8	-0.018046245
208	0xbd475484	-0.048664585
209	0x3da0561e	0.078289255
210	0x3dd0a78e	0.101882085
211	0x3dfec2ca	0.12439497
212	0x3d17af2c	0.03703229
213	0xbd2e89a4	-0.042611733
214	0x3d820536	0.0634865
215	0x3ddba2e8	0.10724431
216	0xbdfb17f2	-0.122604266
217	0xbc7db870	-0.015485868
218	0xbdae954a	-0.085245684
219	0x3cbed518	0.02329497
220	0x3d53c164	0.051698104
221	0xbcd38bc8	-0.025823489
222	0xbc2b5470	-0.010457143
223	0x3d6674ec	0.05626385
224	0xbcac1a78	-0.021008715
225	0xbdd6fbca	-0.10497244
226	0x3dccd5b6	0.100016996
227	0xbd80d938	-0.06291431
228	0xbc60fd80	-0.013732314
229	0x3c412e30	0.011790797
230	0xbbf62820	-0.0075121075
231	0xbdf0d0cc	-0.11758575
232	0x3d6ae7d4	0.057349995
233	0xbd689108	-0.056778938
234	0xbd84c6e0	-0.06483245
235	0x3cf4a640	0.02986443
236	0xbd8598c0	-0.065232754
237	0xbd6ca030	-0.057769954
238	0xbd2c84b4	-0.042118743
239	0xbd4058d0	-0.0469597
240	0xbd55d494	-0.052204683
241	0xbd0a1444	-0.033710733
242	0x3d050e70	0.03248447
243	0xbdcf28e8	-0.10115224
244	0xbd9af3a6	-0.075660035
245	0x3aef1100	0.0018239319
246	0x3c8e67e0	0.017383516
247	0x3d8d630a	0.06903656
248	0xbdb3d35e	-0.087805495
249	0x3d236dc8	0.039899617
250	0x3d9181fe	0.07104872
251	0x3d8e2588	0.06940752
252	0xbdee71a4	-0.11642769
253	0xbd4361a0	-0.047700524
254	0xbddc0c7e	-0.1074457
255	0xbda1ffee	-0.07910143

st_embedder.gat.output_layer.bias f4 [64]
0	0x3dd092e0	0.10184264
1	0x3ca318e0	0.019909322
2	0x3da9e098	0.08294791
3	0xbd0ebf18	-0.03485021
4	0xbde60ca4	-0.1123288
5	0x3d9c74fa	0.07639499
6	0x3d5457cc	0.051841542
7	0x3dd70f20	0.10500932
8	0x3d43a1b0	0.04776162
9	0x3b23b7c0	0.002498135
10	0xbdb8c822	-0.09022547
11	0xbdf2b5d6	-0.11851089
12	0x3ccd8218	0.025086448
13	0x3dd0d888	0.1019755
14	0xbc1f35c0	-0.009717405
15	0xbd270860	-0.04077947
16	0x3d801260	0.06253505
17	0xbd77e1d0	-0.060518086
18	0x3d34aa84	0.04410793
19	0xbdcfbd28	-0.101435006
20	0xbde80156	-0.1132838
21	0xbd955998	-0.07292479
22	0xbcaf5430	-0.021402448
23	0x3d2ca558	0.04214987
24	0x3d818764	0.06324652
25	0xbda208fc	-0.0791187
26	0xbcd24eb8	-0.025672302
27	0x3d289584	0.041158214
28	0xbce1d308	-0.027566448
29	0x3af63600	0.0018784404
30	0x3da5bc64	0.08092573
31	0xbd13b41c	-0.036060438
32	0x3d83fbe0	0.06444526
33	0x3dd002a8	0.10156757
34	0x3d2aaeb4	0.041670516
35	0xbcb5f410	-0.022211105
36	0xbda2182a	-0.07914765
37	0xbda933d8	-0.082618415
38	0xbcc6f6a8	-0.024287537
39	0x3d200228	0.039064556
40	0x3d8c02cc	0.06836471
41	0xbbc597a0	-0.006030038
42	0x3dce4be4	0.10073069
43	0xbd4aca00	-0.04950905
44	0x3ccc32d8	0.024926588
45	0xbd831084	-0.063996345
46	0x3d09945c	0.033588752
47	0x3dda7cf8	0.10668367
48	0x3d336788	0.043799907
49	0x3c0938c0	0.008375347
50	0xbd3c6e48	-0.04600361
51	0xbdd2093e	-0.10255669
52	0xbdaf2eec	-0.085538715
53	0xbddb983a	-0.10722394
54	0x3db5f364	0.08884314
55	0xbd559810	-0.05214697
56	0xbc993780	-0.018703222
57	0xbde5673c	-0.11201331
58	0xbd0ec414	-0.034854963
59	0x3dd9bea2	0.106320634
60	0x3cbc4338	0.022981271
61	0xbcb6d958	-0.022320434
62	0x3d856df0	0.065151095
63	0x3dc55d2e	0.09636913

st_embedder.gru.gru.weight_ih_l0 f4 [192, 64]
0	0x3dc735f2	0.09727086
1	0xbdbd69dc	-0.09248707
2	0x3c130a40	0.008974612
3	0xbdd23834	-0.10264626
4	0xbdb08158	-0.0861842
5	0x3dc4940e	0.09598552
6	0xbdcbf5ca	-0.0995899
7	0xbd7b17f0	-0.061302125
8	0x3d758a40	0.0599463
9	0x3df914c8	0.12162167
10	0xbdf8aeba	-0.121427014
11	0xbda53116	-0.08066003
12	0xbd48c5b8	-0.049016684
13	0x3dc64ffc	0.096832246
14	0x3d95307e	0.0728464
15	0x3d9f98b4	0.07792798
16	0x3da408e8	0.08009511
17	0xbd00227c	-0.031282887
18	0x3dbcc214	0.09216705
19	0xbb6632c0	-0.0035125464
20	0x3c406ac0	0.011744201
21	0xbd07c748	-0.033149034
22	0x3d59322c	0.053026363
23	0x3d64a3d4	0.0558203
24	0xbc5916c0	-0.013250053
25	0x3de15dea	0.11004241
26	0xbd0499d8	-0.03237328
27	0x3d019798	0.03163871
28	0x3de883b6	0.11353247
29	0x3d903c08	0.070427
30	0xbd3a70c0	-0.045517683
31	0xbd67ed24	-0.05662264
32	0x3cc5a098	0.024124429
33	0xba785800	-0.0009473562
34	0x3c1022d0	0.008797362
35	0x3da4e7f2	0.080520526
36	0x3d32f82c	0.043693706
37	0xbd8f9376	-0.07010548
38	0xbdd103e0	-0.10205817
39	0x3df206e4	0.118177205
40	0xbc6176e0	-0.013761252
41	0xbd49b59c	-0.04924546
42	0xbdbc05a2	-0.09180762
43	0x3df5d4d6	0.12003486
44	0x3d812dd6	0.06307571
45	0xbda2499a	-0.07924195
46	0xbddd1942	-0.10795833
47	0x3dde648a	0.1085902
48	0x3d5c6ff8	0.05381772
49	0xbc966a50	-0.01836124
50	0xbdd4c20e	-0.103885755
51	0x3d9b29c6	0.07576327
52	0xbdadc736	-0.08485262
53	0x3d7b9928	0.061425358
54	0xbdf324c0	-0.11872244
55	0xbde44086	-0.11145119
56	0xbdf59652	-0.11991562
57	0x3de8132c	0.11331782
58	0x3de8a31c	0.11359236
59	0xbdda70cc	-0.106660455
60	0x3dc5e594	0.09662929
61	0xbd9b9a82	-0.075978294
62	0xbdedea10	-0.116169095
63	0x3d7667c8	0.060157567
64	0x3d911de2	0.07085778
65	0x3d911ba0	0.07085347
66	0x3cb3b590	0.021937162
67	0x3df5af68	0.11996347
68	0xbddc8866	-0.107682034
69	0x3d6c3b68	0.05767384
70	0xbd223ebc	-0.03961061
71	0x3bca4b60	0.006173536
72	0x3db08f64	0.086210996
73	0xbdb752a4	-0.08951309
74	0x3d605ff8	0.054779023
75	0xbccc8890	-0.024967462
76	0x3da59606	0.08085255
77	0xbb571e80	-0.0032824576
78	0x3d7e05b0	0.062017143
79	0x3df5a144	0.119936496
80	0xbd36cf44	-0.044631258
81	0xbdfc2c04	-0.12313083
82	0x3df17a90	0.11790955
83	0xbd8cf172	-0.068819895
84	0x3cea0398	0.028566167
85	0x3d9f3758	0.07774228
86	0xbc9f0580	-0.019411802
87	0x3dc812a0	0.097691774
88	0x3da5e6e0	0.081006765
89	0xbcce2900	-0.025166035
90	0x3d063d7c	0.03277348
91	0x3c1b3470	0.009472951
92	0x3dfa7124	0.12228611
93	0x3db13c7c	0.086541146
94	0xbdaa81b6	-0.08325522
95	0x3c455420	0.012043983
96	0x3d8a1374	0.06741992
97	0x3dc3b688	0.095562994
98	0x3d2ed030	0.04267901
99	0x3d598eb8	0.053114623
100	0xbcbd1098	-0.023079202
101	0x3b31af00	0.0027112365
102	0xbdb12dc4	-0.08651307
103	0x3dd2bfec	0.102905124
104	0x3dc9959e	0.0984299
105	0xbd8cf71e	-0.06883071
106	0xbddb2c42	-0.10701801
107	0x3dc7a02a	0.09747346
108	0xbde2e548	-0.11078888
109	0x3da42daa	0.08016522
110	0xbdf95aac	-0.121754974
111	0xbd82e17c	-0.06390664
112	0xbd58c72c	-0.05292432
113	0x3df09712	0.117475644
114	0xbcad46b8	-0.021151885
115	0x3ddcd27e	0.10782336
116	0x3d14c1f4	0.03631778
117	0x3df80228	0.12109786
118	0x3da98f9e	0.08279346
119	0x3dbc8996	0.0920593
120	0x3ddf3182	0.10898115
121	0xbd174560	-0.036931396
122	0xbd0cc5a4	-0.034368172
123	0x3d24f888	0.04027608
124	0x3de1856e	0.11011778
125	0xbd3c6b8c	-0.046001002
126	0xbdc95f90	-0.0983268
127	0xbdc84246	-0.09778266
128	0xbd6c8b48	-0.057750016
129	0x3ca36510	0.019945651
130	0xbc6cfee0	-0.014465064
131	0xbd088a3c	-0.033334956
132	0xbd6f5be4	-0.058437243
133	0x3d052c64	0.032513037
134	0xbdd2df20	-0.10296464
135	0x3dfbdbce	0.12297784
136	0xbc9e95d0	-0.019358546
137	0x3cbf10e8	0.023323491
138	0x3d28aa18	0.04117784
139	0xbd4736f8	-0.048636407
140	0x3dca0880	0.098649025
141	0xba72dd00	-0.0009264499
142	0x3c280180	0.010254264
143	0xbdf3b3b8	-0.11899513
144	0x3c7d8000	0.015472412
145	0x3d2fae38	0.042890757
146	0x3c8eb120	0.017418444
147	0xbc4af740	-0.012388051
148	0x3dc14dce	0.09438668
149	0x3dca650e	0.09882556
150	0x3db03f08	0.08605772
151	0xbcb1ba28	-0.021695212
152	0x3cb0e3f8	0.021593079
153	0xbdb2be70	-0.08727729
154	0xbdbfa704	-0.093580276
155	0xbcb2f800	-0.021846771
156	0x3c64ea30	0.01397185
157	0xbd951bbc	-0.072806805
158	0xbdd5ae7e	-0.10433672
159	0x3d68eaf8	0.05686471
160	0x3d3b319c	0.045701608
161	0xbda923d4	-0.08258787
162	0x3daa5a10	0.08317959
163	0xbdbf59be	-0.09343289
164	0x3dc1a75a	0.09455748
165	0x3d87ff9a	0.06640549
166	0xbd2d0a04	-0.04224588
167	0x3df3ba06	0.119007155
168	0xbd8fbcc6	-0.070184276
169	0xbd69e088	-0.057098895
170	0x3dcc0aca	0.09962995
171	0xbd03eed8	-0.0322102
172	0xbd4eca78	-0.050486058
173	0x3c9e7238	0.019341573
174	0xbcad07f0	-0.021121949
175	0x3da1471a	0.0787489
176	0x3dd10176	0.10205357
177	0x3d63bf30	0.055602252
178	0x3cdd7560	0.027033508
179	0x3d009f7c	0.031402096
180	0x3b554840	0.0032544285
181	0x3c7082c0	0.014679611
182	0x3b1b8f00	0.0023736358
183	0x3dae90a4	0.08523682
184	0x3d8f28f4	0.06990233
185	0xbc4de9b0	-0.0125679225
186	0x3d41583c	0.047203287
187	0x3be28820	0.0069132
188	0x3d34ee9c	0.044172868
189	0x3dd22d20	0.10262513
190	0xbdae2d14	-0.08504692
191	0x3c918508	0.01776363
192	0xbcd508b8	-0.026005134
193	0xbdfa450a	-0.122201994
194	0xbdf8c2e2	-0.12146546
195	0xbc8614d8	-0.016367361
196	0x3db73976	0.08946507
197	0xbda8cd7e	-0.082423195
198	0x3d26c704	0.04071714
199	0x3d938bb2	0.07204379
200	0xbdba97e8	-0.09111005
201	0x3d5be2dc	0.053683147
202	0x3cc14370	0.023591727
203	0xbde910c4	-0.11380151
204	0xbb1d8140	-0.0024033338
205	0xbdf055be	-0.11735104
206	0x3ddfd24c	0.10928783
207	0x3d6ff708	0.058585197
208	0x3d442e1c	0.047895536
209	0x3dc489ac	0.09596571
210	0x3dc3c79a	0.09559555
211	0x3dfe24ee	0.124093875
212	0x3d533df4	0.051572755
213	0xbdb8d394	-0.0902473
214	0x3dedc834	0.11610451
215	0x3d0e39d4	0.034723118
216	0xbd49d490	-0.04927498
217	0xbd3e8c68	-0.04652062
218	0x3def8c68	0.11696702
219	0x3ce37930	0.027767748
220	0x3dba1280	0.0908556
221	0x3c1fb900	0.009748697
222	0x3dec79d0	0.115466714
223	0xbdbb52c6	-0.09146647
224	0x3cf40da0	0.029791653
225	0x3cf45860	0.029827297
226	0xbabcf600	-0.0014416575
227	0x3de3bb24	0.111196786
228	0x3ccda1a0	0.025101483
229	0x3bdde240	0.006771356
230	0x3daeba70	0.08531654
231	0xbc21ae80	-0.009868264
232	0xbc0452b0	-0.008076355
233	0xbdd30fc4	-0.103057414
234	0xba56b000	-0.0008189678
235	0xbd6efd28	-0.058346897
236	0x3d94382c	0.072372764
237	0x3ddeb43e	0.10874222
238	0xbdeed486	-0.116616294
239	0xbd94476e	-0.07240187
240	0x3df67812	0.1203462
241	0xbd5a8874	-0.053352788
242	0x3de3ab8e	0.11116706
243	0x3dfc0c6a	0.12307055
244	0xbd006734	-0.031348422
245	0xbdcf3ada	-0.10118647
246	0x3d80013e	0.06250237
247	0x3d68bdc4	0.0568216
248	0x3dde781a	0.10862751
249	0x3c93e588	0.018053785
250	0x3d8b3336	0.06796877
251	0xbddb8126	-0.107179925
252	0x3c8d1f98	0.01722698
253	0x3cf101a0	0.02941972
254	0x3da0732e	0.07834469
255	0xbd890964	-0.06691244

st_embedder.gru.gru.weight_hh_l0 f4 [192, 64]
0	0x3dcef7f0	0.10105884
1	0x3d080524	0.033208027
2	0x3d0c8a4c	0.034311578
3	0x3d03b9a0	0.032159448
4	0xbdeaa7a4	-0.11457756
5	0xbd4a96a8	-0.049460083
6	0xbd8f5998	-0.069995105
7	0xbc96c260	-0.018403232
8	0xbd800b00	-0.06252098
9	0xbd24e3fc	-0.040256485
10	0xbdae4d8e	-0.08510886
11	0xbdba26dc	-0.09089443
12	0x3d257ef4	0.040404275
13	0x3df9e39a	0.12201615
14	0xbd4fa6e4	-0.05069627
15	0xbda92c36	-0.08260386
16	0xbd2c25d4	-0.042028263
17	0xbd41599c	-0.0472046
18	0xbdf94fcc	-0.12173423
19	0x3de0d838	0.109787405
20	0x3dade21c	0.084903926
21	0x3dbdd55a	0.09269209
22	0xbd844c18	-0.06459826
23	0xbda94608	-0.082653105
24	0x3df56300	0.119817734
25	0xbd9adf8a	-0.07562168
26	0xbdd7172c	-0.105024666
27	0xbdd53e4a	-0.10412271
28	0x3d1bd6e0	0.038046718
29	0xbc88a7f0	-0.016681641
30	0xbd9c311c	-0.07626554
31	0x3dd9fd22	0.106439844
32	0xbd8deb9a	-0.06929703
33	0x3c0563b0	0.008141443
34	0x3d7f2884	0.062294498
35	0x3d75017c	0.05981587
36	0x3dd647b8	0.10462898
37	0xbc7dba80	-0.01548636
38	0x3d83f676	0.06443493
39	0xbc228670	-0.009919748
40	0x3c874730	0.016513437
41	0xbd965872	-0.07341088
42	0x3d9e7224	0.07736614
43	0x3ce907a8	0.028446034
44	0x3ccd4370	0.02505657
45	0xbc1cf170	-0.009579048
46	0x3d4f3454	0.050587013
47	0xbdf74448	-0.120735705
48	0x3dd13340	0.10214853
49	0x3dc8d54a	0.09806307
50	0x3d8928fe	0.06697272
51	0xbb956280	-0.0045588613
52	0xbdeee026	-0.11663847
53	0xbd0ab378	-0.03386256
54	0xbdcdab2c	-0.10042414
55	0xbd754e04	-0.059888855
56	0x3dc95584	0.09830764
57	0xbc6c4ae0	-0.0144221485
58	0x3dff0b12	0.12453283
59	0xbd810c4c	-0.063011736
60	0xbd6e75c8	-0.058217794
61	0xbdcd2cec	-0.10018334
62	0x3d4301b8	0.04760906
63	0x3d3d8164	0.046265975
64	0x3d8145f4	0.063121706
65	0x3ddd6a2e	0.10811268
66	0x3d99ea98	0.07515448
67	0xbdeac642	-0.11463596
68	0x3b6b1900	0.0035873055
69	0x3ddf5106	0.10904126
70	0x3db2a818	0.087234676
71	0x3d462720	0.048377156
72	0xbd706920	-0.058694005
73	0xbdd80020	-0.10546899
74	0x3df6c0c2	0.120484844
75	0xbd27ae24	-0.040937558
76	0x3d2f0490	0.04272896
77	0xbd0a6344	-0.033786073
78	0xbd2ce4e8	-0.04221049
79	0x3d365000	0.044509888
80	0x3decd476	0.11563961
81	0xbcf33838	-0.029689893
82	0x3d5dca2c	0.054147884
83	0x3d4e2250	0.05032569
84	0xbca393b0	-0.019967884
85	0x3ccbc158	0.024872467
86	0x3d2a1dc8	0.041532308
87	0x3de48d72	0.11159791
88	0xbd414654	-0.04718621
89	0x3dc4e856	0.09614627
90	0xbc043b30	-0.008070752
91	0x3d49f384	0.0493045
92	0xbdcf8ebe	-0.10134648
93	0x3dac0e30	0.084011436
94	0x3dd7c1f8	0.105350435
95	0x3cee8418	0.029115722
96	0x3b7b6fc0	0.0038366169
97	0x3d059dcc	0.03262119
98	0xbdca3114	-0.09872642
99	0xbddcac4e	-0.10775052
100	0x3dbead1e	0.09310363
101	0xbde5e1ee	-0.11224733
102	0xbce55ca0	-0.027998269
103	0xbd9cca7e	-0.0765581
104	0xbdeef7bc	-0.11668345
105	0xbd5948b8	-0.053047866
106	0xba843d80	-0.0010089129
107	0xbdcd6ddc	-0.1003072
108	0xbdc43e8c	-0.09582242
109	0xbdce7898	-0.10081595
110	0xbb9401a0	-0.0045167953
111	0xbd085c38	-0.03329107
112	0x3dbc220e	0.09186183
113	0xbdf51066	-0.119660184
114	0xbddf9bee	-0.10918413
115	0xbd1c10f8	-0.03810212
116	0x3dfffd4a	0.12499483
117	0x3de92c38	0.11385387
118	0xbc846790	-0.016162664
119	0xbd0b8ea8	-0.034071594
120	0x3c8d90b0	0.017280906
121	0x3bac1a20	0.005252138
122	0x3c4082d0	0.011749938
123	0xbd5d48b8	-0.054024428
124	0xbbc73ca0	-0.006080225
125	0x3cc500c8	0.024048224
126	0x3d98fa12	0.07469572
127	0xbda17ea4	-0.07885483
128	0xbcd04fe8	-0.025428727
129	0x3d808a6c	0.06276402
130	0x3da88282	0.082280174
131	0x3d8aac84	0.06771186
132	0xbcf85bd0	-0.030317217
133	0x3ce981b0	0.028504223
134	0xbd2f40c4	-0.042786375
135	0x3dd96c3c	0.10616347
136	0x3d916c92	0.07100786
137	0xbde703dc	-0.11280033
138	0x3d78b26c	0.06071703
139	0x3dfb4ea0	0.12270856
140	0x3d08ea6c	0.033426687
141	0xbdcb0edc	-0.099149436
142	0x3da4abc8	0.08040577
143	0x3bdb4ac0	0.0066922605
144	0xbd095fb4	-0.033538535
145	0x3d5f7430	0.054554164
146	0x3dc6c298	0.097050846
147	0x3d6858a8	0.056725174
148	0xbdc9d8ec	-0.09855828
149	0x3d55aebc	0.052168593
150	0xbd9df8e4	-0.07713488
151	0xbdef1ce0	-0.11675429
152	0xbd7df12c	-0.061997578
153	0x3d86aa62	0.06575467
154	0x3dc4d036	0.096100256
155	0x3d172748	0.036902696
156	0x3d9d5a06	0.07683186
157	0xbdf443d6	-0.11927001
158	0xbd7950ac	-0.06086795
159	0xbd921114	-0.07132164
160	0xbdd97f38	-0.10619968
161	0xbd9fdbb4	-0.07805577
162	0xbdb6c9be	-0.08925198
163	0xbdd5ed40	-0.104456425
164	0x3c956958	0.018238708
165	0xbd6ea55c	-0.058263168
166	0x3ba924e0	0.0051618665
167	0xbca3f500	-0.020014286
168	0x3c0cb8b0	0.008588955
169	0xbde886fe	-0.11353873
170	0xbdd1f80c	-0.10252389
171	0xbde776ca	-0.11301954
172	0x3db22892	0.086991444
173	0x3b87aaa0	0.004140213
174	0xbdd9e460	-0.10639262
175	0xbd450e9c	-0.048109636
176	0xbaa8df00	-0.0012883842
177	0xbda96c74	-0.08272639
178	0x3dcf1dd6	0.10113113
179	0x3db7b58e	0.08970176
180	0x3cf61e98	0.030043885
181	0xbcb055a8	-0.02152522
182	0x3d94e5c4	0.07270387
183	0x3d060f40	0.032729387
184	0x3c2e55b0	0.010640547
185	0x3c7c8e80	0.015414834
186	0xbdded1ee	-0.10879885
187	0x3d10f954	0.035394028
188	0x3d3aeffc	0.045639023
189	0x3d9df0ca	0.077119425
190	0x3d72cee0	0.059279323
191	0x3dd9e3c0	0.10639143
192	0xbd881656	-0.06644885
193	0x3c2806b0	0.010255501
194	0xbdbc86b8	-0.09205383
195	0x3ddbc798	0.10731429
196	0xbbbf34c0	-0.0058351457
197	0xbddd3a82	-0.10802175
198	0x3da5f29c	0.08102915
199	0x3c718550	0.014741257
200	0xbd13948c	-0.036030337
201	0x3de506d4	0.11182943
202	0xbd86d4b2	-0.06583537
203	0xbd7e0670	-0.062017858
204	0xbd2fc47c	-0.04291199
205	0x3c6a96b0	0.014318153
206	0xbdc6ef8a	-0.09713657
207	0x3cdd6f08	0.027030483
208	0xbdf7b60e	-0.12095271
209	0xbd89fba2	-0.06737448
210	0xbd95bf18	-0.07311839
211	0xbdba023c	-0.090824574
212	0x3cea9b48	0.028638497
213	0x3d60ee48	0.054914743
214	0xbcfa61c8	-0.030564204
215	0xbd19d068	-0.037552267
216	0x3b2d8800	0.0026478767
217	0xbdcf7faa	-0.10131772
218	0xbdf2fc08	-0.118644774
219	0xbda5d04a	-0.080963686
220	0xbdb996b8	-0.090619504
221	0x3c906b78	0.01762937
222	0x3dce9eb0	0.10088861
223	0x3db6aa46	0.08919196
224	0xbd9d9960	-0.076952696
225	0x3d8e6eae	0.06954704
226	0x3de08728	0.10963279
227	0xbcd8a3f8	-0.026445374
228	0xbd26f388	-0.040759593
229	0xbdf1d92a	-0.11808999
230	0xbc139200	-0.009006977
231	0xbd465b8c	-0.04842715
232	0x3d01332c	0.031542942
233	0xbdeb0aaa	-0.114766434
234	0xbc441f50	-0.011970356
235	0x3cb41990	0.021984845
236	0xbcfebc40	-0.031095624
237	0xbc9d6280	-0.019212008
238	0x3df2fde6	0.118648335
239	0x3d5eba5c	0.054376945
240	0xbdbe82d2	-0.09302296
241	0xbd67d01c	-0.056594953
242	0x3d6c32ec	0.05766575
243	0x3d5f0e28	0.05445686
244	0xbdd79fe8	-0.105285466
245	0xbdaefb4c	-0.08544025
246	0xbd53bce4	-0.051693812
247	0xbc795b70	-0.015219554
248	0x3bf4dfe0	0.007472977
249	0x3cfc6e38	0.030814275
250	0xbd6eb904	-0.058281913
251	0xbd8ef1da	-0.06979723
252	0x3d8f5e8e	0.07000457
253	0xbdc7b970	-0.09752166
254	0xbcb49dd0	-0.022047907
255	0xbde59b66	-0.112112805

st_embedder.gru.gru.bias_ih_l0 f4 [192]
0	0x3db91ca0	0.09038663
1	0xbce3e8c8	-0.02782096
2	0x3bcf3560	0.0063235015
3	0xbdaf1c8c	-0.08550367
4	0x3cc0bc70	0.023527354
5	0x3d8abf86	0.067748114
6	0x3cd5ca28	0.026097372
7	0xbde68b02	-0.112569824
8	0xbd72260c	-0.059118316
9	0x3d57acf0	0.05265516
10	0xbdd5ff62	-0.10449101
11	0x3de173b2	0.11008395
12	0xbd623a20	-0.055231214
13	0xbcd284e0	-0.025698125
14	0xbcbfa350	-0.023393303
15	0xbd081ad0	-0.033228695
16	0xbdd486a4	-0.10377243
17	0xbbfe2e00	-0.0077569485
18	0xbd15b920	-0.036553502
19	0x3dad80fa	0.08471866
20	0xbc4694b0	-0.012120411
21	0xbc09f260	-0.008419603
22	0x3d680ecc	0.056654736
23	0x3dfe622a	0.12421067
24	0xbdc58438	-0.09644359
25	0xbd2bf6b8	-0.041983336
26	0xbcbd62d0	-0.023118407
27	0x3ddeefc4	0.108855754
28	0xbc85fba0	-0.016355336
29	0xbcf4a598	-0.029864118
30	0xbd66d044	-0.05635096
31	0xbd0a6688	-0.033789188
32	0xbdf23928	-0.11827308
33	0xbdea927e	-0.114537224
34	0x3d5241b4	0.05133219
35	0xbb2af340	-0.002608493
36	0xbdf9c334	-0.12195435
37	0x3c30a640	0.010781825
38	0xbd3105cc	-0.04321842
39	0x3d6e6b20	0.05820763
40	0x3db42f92	0.08798136
41	0x3ddfda7c	0.109303445
42	0x3d0c5318	0.034258932
43	0x3df9e636	0.122021124
44	0x3deecfda	0.11660738
45	0xbcfc6940	-0.030811906
46	0xbddb87a6	-0.10719232
47	0xbc236080	-0.009971738
48	0x3dc19c36	0.09453623
49	0x3d59d804	0.053184524
50	0xbd338208	-0.04382518
51	0xbcaddf80	-0.021224737
52	0x3d9b4274	0.07581034
53	0x3d7576cc	0.059927747
54	0x3dc35b06	0.09538846
55	0x3d494130	0.049134433
56	0xbd2a50bc	-0.0415809
57	0xbde368fc	-0.111040086
58	0x3d967ae4	0.07347658
59	0xbdabe6b8	-0.083936155
60	0xbda9e340	-0.082952976
61	0xbb626600	-0.003454566
62	0xbb10fa40	-0.0022121817
63	0xbdd35a72	-0.103199854
64	0x3da35844	0.0797582
65	0x3d4d1804	0.05007173
66	0xbd0dc380	-0.03461027
67	0xbcd3c5a8	-0.025851086
68	0xbcd86558	-0.026415512
69	0x3d937b98	0.07201308
70	0x3d878912	0.06617941
71	0xbde2e160	-0.11078143
72	0xbd13a70c	-0.03604798
73	0xbbd61ac0	-0.0065339506
74	0xbdd8aa78	-0.10579389
75	0xbdd53110	-0.104097486
76	0x3d0978e8	0.03356257
77	0xbd157be0	-0.03649509
78	0xbdf91d68	-0.12163812
79	0x3dcc3176	0.099703714
80	0xbda95784	-0.082686454
81	0xbdf4999a	-0.1194336
82	0x3a251600	0.0006297529
83	0xbdc093c6	-0.094031855
84	0x3ddf4954	0.10902658
85	0xbc23a0a0	-0.009987026
86	0xbd7980f4	-0.060913995
87	0x3d3eb850	0.046562493
88	0xbd8d5dac	-0.06902632
89	0xbca8b9c0	-0.020596385
90	0x3d95090c	0.07277116
91	0x3ddaa21e	0.10675453
92	0xbdec5bd4	-0.11540952
93	0x3dbf9b72	0.09355821
94	0xbdf40754	-0.1191546
95	0x3d77a078	0.06045577
96	0xbdaf7710	-0.08567631
97	0xbc7ffbc0	-0.015623987
98	0xbda5e2f6	-0.0809993
99	0x3dda76e4	0.10667208
100	0x3d6aaf00	0.0572958
101	0x3bac6740	0.005261332
102	0x3dfd7bde	0.123771414
103	0xbdd108ca	-0.102067545
104	0xbd8eb6de	-0.06968473
105	0x3da7c7ae	0.08192383
106	0x3d8b7a98	0.06810492
107	0x3d4dc780	0.050239086
108	0xbd3c41dc	-0.045961246
109	0xbd5f4be8	-0.05451575
110	0x3df6d248	0.12051827
111	0x3c3a7df0	0.011382565
112	0xbdf134a8	-0.117776215
113	0x3db4d0aa	0.08828862
114	0x3ad20780	0.0016023964
115	0xbdff8a52	-0.124775544
116	0xbd8bdb1a	-0.068289
117	0xbdcfdf16	-0.10149972
118	0xbd0e9bcc	-0.03481655
119	0x3c9c6c50	0.019094616
120	0xbd3ad0b8	-0.045609206
121	0x3d92b6ac	0.07163748
122	0xbd8a9ebe	-0.06768559
123	0x3dfe1576	0.12406437
124	0xbddf4732	-0.10902251
125	0xbdd112e8	-0.10208684
126	0xbb99eb40	-0.0046972334
127	0x3dc46256	0.095890686
128	0xbd0e9f94	-0.034820154
129	0xbdaf24b2	-0.08551921
130	0x3db89e1e	0.090145335
131	0x3da3c462	0.079964414
132	0xbd2a1238	-0.04152128
133	0xbdd68002	-0.10473634
134	0x3d20226c	0.039095327
135	0x3c91aa18	0.017781302
136	0x3da59ab6	0.080861494
137	0xbdcbf710	-0.09959233
138	0xbd260114	-0.040528372
139	0x3df69516	0.12040155
140	0x3daacc1e	0.083397135
141	0xbd281330	-0.041033924
142	0xbd2f412c	-0.042786762
143	0x3dc08460	0.094002485
144	0x3d64128c	0.05568175
145	0xbdb9e786	-0.09077363
146	0x3d821aa6	0.06352739
147	0xbc579670	-0.013158426
148	0x3def226e	0.11676489
149	0xbdbeed12	-0.09322561
150	0xbd70ea9c	-0.05881749
151	0x3deff12a	0.1171592
152	0xbd30a224	-0.04312338
153	0xbdfdcb70	-0.12392318
154	0x3d85c488	0.06531626
155	0xbc17c300	-0.0092628
156	0x3d5b42c0	0.053530455
157	0xbcc534f8	-0.024073109
158	0x3dc66402	0.09687044
159	0xbc0d6cc0	-0.008631885
160	0xbc17f8a0	-0.009275585
161	0x3dab0c0c	0.08351907
162	0xbb0b4080	-0.0021248162
163	0xbded683a	-0.11592145
164	0x3ce01e60	0.027358234
165	0x3d560e4c	0.05225973
166	0xbd77988c	-0.060448214
167	0xbd72698c	-0.05918269
168	0x3de18494	0.110116154
169	0xbd747a88	-0.059687167
170	0x3ce6afc8	0.02815999
171	0x3d50e308	0.050997764
172	0x3d843974	0.06456271
173	0xbb528fc0	-0.0032129139
174	0x3d3647bc	0.044502005
175	0x3df99404	0.12186435
176	0xbce52a48	-0.027974263
177	0xbcf0c590	-0.02939108
178	0x3ddd4220	0.10803628
179	0x3d5b2dbc	0.053510413
180	0x3df3b066	0.1189888
181	0xbddb9df4	-0.107234865
182	0xbd304a44	-0.043039575
183	0xbdd54ef8	-0.10415453
184	0xbd2c507c	-0.042068943
185	0x3dd9f9c0	0.10643339
186	0xbd021b2c	-0.031764194
187	0xbd4e2710	-0.05033022
188	0xbd404250	-0.04693824
189	0x3d8f701e	0.070038065
190	0xbdc13238	-0.094334066
191	0xbdabde7c	-0.08392045
